{"architecture":{"class_name":"Functional","config":{"name":"sequential_6","layers":[{"class_name":"InputLayer","config":{"batch_input_shape":[null,48,48,1],"dtype":"float32","sparse":false,"ragged":false,"name":"input_1"},"name":"input_1","inbound_nodes":[]},{"class_name":"Rescaling","config":{"name":"rescaling_2","trainable":true,"batch_input_shape":[null,48,48,1],"dtype":"float32","scale":0.00392156862745098,"offset":0.0},"name":"rescaling_2","inbound_nodes":[[["input_1",0,0,{}]]]},{"class_name":"Conv2D","config":{"name":"conv2d_16","trainable":true,"batch_input_shape":[null,48,48,1],"dtype":"float32","filters":32,"kernel_size":[3,3],"strides":[1,1],"padding":"valid","data_format":"channels_last","dilation_rate":[1,1],"groups":1,"activation":"relu","use_bias":true,"kernel_initializer":{"class_name":"GlorotUniform","config":{"seed":null}},"bias_initializer":{"class_name":"Zeros","config":{}},"kernel_regularizer":null,"bias_regularizer":null,"activity_regularizer":null,"kernel_constraint":null,"bias_constraint":null},"name":"conv2d_16","inbound_nodes":[[["rescaling_2",0,0,{}]]]},{"class_name":"MaxPooling2D","config":{"name":"max_pooling2d_16","trainable":true,"dtype":"float32","pool_size":[2,2],"padding":"valid","strides":[2,2],"data_format":"channels_last"},"name":"max_pooling2d_16","inbound_nodes":[[["conv2d_16",0,0,{}]]]},{"class_name":"Conv2D","config":{"name":"conv2d_17","trainable":true,"batch_input_shape":[null,64,64,1],"dtype":"float32","filters":32,"kernel_size":[3,3],"strides":[1,1],"padding":"valid","data_format":"channels_last","dilation_rate":[1,1],"groups":1,"activation":"relu","use_bias":true,"kernel_initializer":{"class_name":"GlorotUniform","config":{"seed":null}},"bias_initializer":{"class_name":"Zeros","config":{}},"kernel_regularizer":null,"bias_regularizer":null,"activity_regularizer":null,"kernel_constraint":null,"bias_constraint":null},"name":"conv2d_17","inbound_nodes":[[["max_pooling2d_16",0,0,{}]]]},{"class_name":"MaxPooling2D","config":{"name":"max_pooling2d_17","trainable":true,"dtype":"float32","pool_size":[2,2],"padding":"valid","strides":[2,2],"data_format":"channels_last"},"name":"max_pooling2d_17","inbound_nodes":[[["conv2d_17",0,0,{}]]]},{"class_name":"Conv2D","config":{"name":"conv2d_18","trainable":true,"batch_input_shape":[null,64,64,1],"dtype":"float32","filters":64,"kernel_size":[3,3],"strides":[1,1],"padding":"valid","data_format":"channels_last","dilation_rate":[1,1],"groups":1,"activation":"relu","use_bias":true,"kernel_initializer":{"class_name":"GlorotUniform","config":{"seed":null}},"bias_initializer":{"class_name":"Zeros","config":{}},"kernel_regularizer":null,"bias_regularizer":null,"activity_regularizer":null,"kernel_constraint":null,"bias_constraint":null},"name":"conv2d_18","inbound_nodes":[[["max_pooling2d_17",0,0,{}]]]},{"class_name":"MaxPooling2D","config":{"name":"max_pooling2d_18","trainable":true,"dtype":"float32","pool_size":[2,2],"padding":"valid","strides":[2,2],"data_format":"channels_last"},"name":"max_pooling2d_18","inbound_nodes":[[["conv2d_18",0,0,{}]]]},{"class_name":"Conv2D","config":{"name":"conv2d_19","trainable":true,"batch_input_shape":[null,64,64,1],"dtype":"float32","filters":128,"kernel_size":[3,3],"strides":[1,1],"padding":"valid","data_format":"channels_last","dilation_rate":[1,1],"groups":1,"activation":"relu","use_bias":true,"kernel_initializer":{"class_name":"GlorotUniform","config":{"seed":null}},"bias_initializer":{"class_name":"Zeros","config":{}},"kernel_regularizer":null,"bias_regularizer":null,"activity_regularizer":null,"kernel_constraint":null,"bias_constraint":null},"name":"conv2d_19","inbound_nodes":[[["max_pooling2d_18",0,0,{}]]]},{"class_name":"MaxPooling2D","config":{"name":"max_pooling2d_19","trainable":true,"dtype":"float32","pool_size":[2,2],"padding":"valid","strides":[2,2],"data_format":"channels_last"},"name":"max_pooling2d_19","inbound_nodes":[[["conv2d_19",0,0,{}]]]},{"class_name":"Flatten","config":{"name":"flatten_4","trainable":true,"dtype":"float32","data_format":"channels_last"},"name":"flatten_4","inbound_nodes":[[["max_pooling2d_19",0,0,{}]]]},{"class_name":"Dense","config":{"name":"dense_12","trainable":true,"dtype":"float32","units":512,"activation":"relu","use_bias":true,"kernel_initializer":{"class_name":"GlorotUniform","config":{"seed":null}},"bias_initializer":{"class_name":"Zeros","config":{}},"kernel_regularizer":null,"bias_regularizer":null,"activity_regularizer":null,"kernel_constraint":null,"bias_constraint":null},"name":"dense_12","inbound_nodes":[[["flatten_4",0,0,{}]]]},{"class_name":"Dense","config":{"name":"dense_13","trainable":true,"dtype":"float32","units":2,"activation":"softmax","use_bias":true,"kernel_initializer":{"class_name":"GlorotUniform","config":{"seed":null}},"bias_initializer":{"class_name":"Zeros","config":{}},"kernel_regularizer":null,"bias_regularizer":null,"activity_regularizer":null,"kernel_constraint":null,"bias_constraint":null},"name":"dense_13","inbound_nodes":[[["dense_12",0,0,{}]]]}],"input_layers":[["input_1",0,0]],"output_layers":[["dense_13",0,0]]},"keras_version":"2.10.0","backend":"tensorflow"},"image_data_format":"channels_last","input_shapes":[[48,48,1]],"output_shapes":[[2]],"tests":[{"inputs":[{"shape":[48,48,1],"values":["…","…","…","…","…","…","…","…","…","…","…","…"]}],"outputs":[{"shape":[2],"values":["3mo0PVK5dD8="]}]}],"trainable_params":{"conv2d_16":{"weights":["…","…"],"bias":["0ttSPWjeZrwDrjk8NY/fPKqsxDwwNyI99DsXPUsHFTx1f/k7e9z/PIpZvDwDTQc9yQLjvIax5bwYBbc8GddPvJ4eyz1y7U88+R4pPf1u1Dz3MQw7gOcWvcmSJj3SZsS9qWBnvQ96kDxoXis9C0NKPdT/RL3aKaS8TrU6PetYOzs="]},"conv2d_17":{"weights":["…","…","…","…","…","…","…","…","…","…","…","…","…","…","…","…","…","…","…","…","…","…","…","…","…","…","…","…","…","…","…","…","…","…","…","…","…","…","…","…","…","…","…","…","…","…","…","…"],"bias":["hWfBuyvXiLwuHqk7vAmXvPnQob1UCg29cXpuvHducryPeNk8rejCvIN+IL1tpSs8ZIhUuTSQr7gkihm967zqvLpZubzXtHq8jxkkPb89BrtZoxc9LsAAvaPTWL0wQjC8ab2SvJhvxbxHe/U8lnWxueAm5LwoVwO9zE/ovNa0ID0="]},"conv2d_18":{"weights":["…","…","…","…","…","…","…","…","…","…","…","…","…","…","…","…","…","…","…","…","…","…","…","…","…","…","…","…","…","…","…","…","…","…","…","…","…","…","…","…","…","…","…","…","…","…","…","…","…","…","…","…","…","…","…","…","…","…","…","…","…","…","…","…","…","…","…","…","…","…","…","…","…","…","…","…","…","…","…","…","…","…","…","…","…","…","…","…","…","…","…","…","…","…","…","…"],"bias":["…"]},"conv2d_19":{"weights":["…","…","…","…","…","…","…","…","…","…","…","…","…","…","…","…","…","…","…","…","…","…","…","…","…","…","…","…","…","…","…","…","…","…","…","…","…","…","…","…","…","…","…","…","…","…","…","…","…","…","…","…","…","…","…","…","…","…","…","…","…","…","…","…","…","…","…","…","…","…","…","…","…","…","…","…","…","…","…","…","…","…","…","…","…","…","…","…","…","…","…","…","…","…","…","…","…","…","…","…","…","…","…","…","…","…","…","…","…","…","…","…","…","…","…","…","…","…","…","…","…","…","…","…","…","…","…","…","…","…","…","…","…","…","…","…","…","…","…","…","…","…","…","…","…","…","…","…","…","…","…","…","…","…","…","…","…","…","…","…","…","…","…","…","…","…","…","…","…","…","…","…","…","…","…","…","…","…","…","…","…","…","…","…","…","…","…","…","…","…","…","…","…","…","…","…","…","…","…","…","…","…","…","…","…","…","…","…","…","…","…","…","…","…","…","…","…","…","…","…","…","…","…","…","…","…","…","…","…","…","…","…","…","…","…","…","…","…","…","…","…","…","…","…","…","…","…","…","…","…","…","…","…","…","…","…","…","…","…","…","…","…","…","…","…","…","…","…","…","…","…","…","…","…","…","…","…","…","…","…","…","…","…","…","…","…","…","…","…","…","…","…","…","…","…","…","…","…","…","…","…","…","…","…","…","…","…","…","…","…","…","…","…","…","…","…","…","…","…","…","…","…","…","…","…","…","…","…","…","…","…","…","…","…","…","…","…","…","…","…","…","…","…","…","…","…","…","…","…","…","…","…","…","…","…","…","…","…","…","…","…","…","…","…","…","…","…","…","…","…","…","…","…","…","…","…","…","…","…","…","…","…","…","…"],"bias":["…"]},"dense_12":{"weights":["…","…","…","…","…","…","…","…","…","…","…","…","…","…","…","…","…","…","…","…","…","…","…","…","…","…","…","…","…","…","…","…","…","…","…","…","…","…","…","…","…","…","…","…","…","…","…","…","…","…","…","…","…","…","…","…","…","…","…","…","…","…","…","…","…","…","…","…","…","…","…","…","…","…","…","…","…","…","…","…","…","…","…","…","…","…","…","…","…","…","…","…","…","…","…","…","…","…","…","…","…","…","…","…","…","…","…","…","…","…","…","…","…","…","…","…","…","…","…","…","…","…","…","…","…","…","…","…","…","…","…","…","…","…","…","…","…","…","…","…","…","…","…","…","…","…","…","…","…","…","…","…","…","…","…","…","…","…","…","…","…","…","…","…","…","…","…","…","…","…","…","…","…","…","…","…","…","…","…","…","…","…","…","…","…","…","…","…","…","…","…","…","…","…","…","…","…","…","…","…","…","…","…","…","…","…","…","…","…","…","…","…","…","…","…","…","…","…","…","…","…","…","…","…","…","…","…","…","…","…","…","…","…","…","…","…","…","…","…","…","…","…","…","…","…","…","…","…","…","…","…","…","…","…","…","…","…","…","…","…","…","…","…","…","…","…","…","…","…","…","…","…","…","…","…","…","…","…","…","…","…","…","…","…","…","…","…","…","…","…","…","…","…","…","…","…","…","…","…","…","…","…","…","…","…","…","…","…","…","…","…","…","…","…","…","…","…","…","…","…","…","…","…","…","…","…","…","…","…","…","…","…","…","…","…","…","…","…","…","…","…","…"],"bias":["…","…","…"]},"dense_13":{"weights":["…","…","…","…","…","…"],"bias":["4pfDvPGXwzw="]}},"hash":"aa44b05c510801c53f1cdfe1b9d6e1abf26e03f6ef4639c4fa1894c7c1eea2ed"}