{"architecture":{"class_name":"Functional","config":{"name":"sequential_2","layers":[{"class_name":"InputLayer","config":{"batch_input_shape":[null,48,48,1],"dtype":"float32","sparse":false,"ragged":false,"name":"input_1"},"name":"input_1","inbound_nodes":[]},{"class_name":"Rescaling","config":{"name":"rescaling_2","trainable":true,"batch_input_shape":[null,48,48,1],"dtype":"float32","scale":0.00392156862745098,"offset":0.0},"name":"rescaling_2","inbound_nodes":[[["input_1",0,0,{}]]]},{"class_name":"Conv2D","config":{"name":"conv2d_8","trainable":true,"batch_input_shape":[null,48,48,1],"dtype":"float32","filters":32,"kernel_size":[3,3],"strides":[1,1],"padding":"valid","data_format":"channels_last","dilation_rate":[1,1],"groups":1,"activation":"relu","use_bias":true,"kernel_initializer":{"class_name":"GlorotUniform","config":{"seed":null}},"bias_initializer":{"class_name":"Zeros","config":{}},"kernel_regularizer":null,"bias_regularizer":null,"activity_regularizer":null,"kernel_constraint":null,"bias_constraint":null},"name":"conv2d_8","inbound_nodes":[[["rescaling_2",0,0,{}]]]},{"class_name":"MaxPooling2D","config":{"name":"max_pooling2d_8","trainable":true,"dtype":"float32","pool_size":[2,2],"padding":"valid","strides":[2,2],"data_format":"channels_last"},"name":"max_pooling2d_8","inbound_nodes":[[["conv2d_8",0,0,{}]]]},{"class_name":"Conv2D","config":{"name":"conv2d_9","trainable":true,"batch_input_shape":[null,64,64,3],"dtype":"float32","filters":32,"kernel_size":[3,3],"strides":[1,1],"padding":"valid","data_format":"channels_last","dilation_rate":[1,1],"groups":1,"activation":"relu","use_bias":true,"kernel_initializer":{"class_name":"GlorotUniform","config":{"seed":null}},"bias_initializer":{"class_name":"Zeros","config":{}},"kernel_regularizer":null,"bias_regularizer":null,"activity_regularizer":null,"kernel_constraint":null,"bias_constraint":null},"name":"conv2d_9","inbound_nodes":[[["max_pooling2d_8",0,0,{}]]]},{"class_name":"MaxPooling2D","config":{"name":"max_pooling2d_9","trainable":true,"dtype":"float32","pool_size":[2,2],"padding":"valid","strides":[2,2],"data_format":"channels_last"},"name":"max_pooling2d_9","inbound_nodes":[[["conv2d_9",0,0,{}]]]},{"class_name":"Conv2D","config":{"name":"conv2d_10","trainable":true,"batch_input_shape":[null,64,64,3],"dtype":"float32","filters":64,"kernel_size":[3,3],"strides":[1,1],"padding":"valid","data_format":"channels_last","dilation_rate":[1,1],"groups":1,"activation":"relu","use_bias":true,"kernel_initializer":{"class_name":"GlorotUniform","config":{"seed":null}},"bias_initializer":{"class_name":"Zeros","config":{}},"kernel_regularizer":null,"bias_regularizer":null,"activity_regularizer":null,"kernel_constraint":null,"bias_constraint":null},"name":"conv2d_10","inbound_nodes":[[["max_pooling2d_9",0,0,{}]]]},{"class_name":"MaxPooling2D","config":{"name":"max_pooling2d_10","trainable":true,"dtype":"float32","pool_size":[2,2],"padding":"valid","strides":[2,2],"data_format":"channels_last"},"name":"max_pooling2d_10","inbound_nodes":[[["conv2d_10",0,0,{}]]]},{"class_name":"Conv2D","config":{"name":"conv2d_11","trainable":true,"batch_input_shape":[null,64,64,3],"dtype":"float32","filters":128,"kernel_size":[3,3],"strides":[1,1],"padding":"valid","data_format":"channels_last","dilation_rate":[1,1],"groups":1,"activation":"relu","use_bias":true,"kernel_initializer":{"class_name":"GlorotUniform","config":{"seed":null}},"bias_initializer":{"class_name":"Zeros","config":{}},"kernel_regularizer":null,"bias_regularizer":null,"activity_regularizer":null,"kernel_constraint":null,"bias_constraint":null},"name":"conv2d_11","inbound_nodes":[[["max_pooling2d_10",0,0,{}]]]},{"class_name":"MaxPooling2D","config":{"name":"max_pooling2d_11","trainable":true,"dtype":"float32","pool_size":[2,2],"padding":"valid","strides":[2,2],"data_format":"channels_last"},"name":"max_pooling2d_11","inbound_nodes":[[["conv2d_11",0,0,{}]]]},{"class_name":"Flatten","config":{"name":"flatten_2","trainable":true,"dtype":"float32","data_format":"channels_last"},"name":"flatten_2","inbound_nodes":[[["max_pooling2d_11",0,0,{}]]]},{"class_name":"Dense","config":{"name":"dense_4","trainable":true,"dtype":"float32","units":512,"activation":"relu","use_bias":true,"kernel_initializer":{"class_name":"GlorotUniform","config":{"seed":null}},"bias_initializer":{"class_name":"Zeros","config":{}},"kernel_regularizer":null,"bias_regularizer":null,"activity_regularizer":null,"kernel_constraint":null,"bias_constraint":null},"name":"dense_4","inbound_nodes":[[["flatten_2",0,0,{}]]]},{"class_name":"Dense","config":{"name":"dense_5","trainable":true,"dtype":"float32","units":6,"activation":"softmax","use_bias":true,"kernel_initializer":{"class_name":"GlorotUniform","config":{"seed":null}},"bias_initializer":{"class_name":"Zeros","config":{}},"kernel_regularizer":null,"bias_regularizer":null,"activity_regularizer":null,"kernel_constraint":null,"bias_constraint":null},"name":"dense_5","inbound_nodes":[[["dense_4",0,0,{}]]]}],"input_layers":[["input_1",0,0]],"output_layers":[["dense_5",0,0]]},"keras_version":"2.10.0","backend":"tensorflow"},"image_data_format":"channels_last","input_shapes":[[48,48,1]],"output_shapes":[[6]],"tests":[{"inputs":[{"shape":[48,48,1],"values":["…","…","…","…","…","…","…","…","…","…","…","…"]}],"outputs":[{"shape":[6],"values":["oSSkPvyMFTjEb289QaUdP30dxDp+DG07"]}]}],"trainable_params":{"conv2d_8":{"weights":["…","…"],"bias":["sPs5Pt+gLr2KSRM+Drdhu/HFZ72Fg9I7X50hPlI3DT4jyGk9ETgkvhTnJL178Ro+LbvAu3Cjcb3WuQM+7SdBPq15or3ZsvE9DaHluwVySD1Ql8C8p6RXvabyXbzPUGM85CgPvpJ0QTt70pk8LUZHvbKUFr1su3A9YaaUvgvx9T0="]},"conv2d_9":{"weights":["…","…","…","…","…","…","…","…","…","…","…","…","…","…","…","…","…","…","…","…","…","…","…","…","…","…","…","…","…","…","…","…","…","…","…","…","…","…","…","…","…","…","…","…","…","…","…","…"],"bias":["4VyOvY3/CL2PMhw8HFlQvoE83D05mwe94zYAvvwDAb4tDd69qJYOvehgn7xDVSO7+mSRPtJ2Nb1yzyI+BxIFvRhgVr5jaw08jVbhveVv1r0GtuS9zODHvNFPT75xarw90sk6vaf3V73m0AW9h13CvdPmWr3MvNu9OBtavU2gurw="]},"conv2d_10":{"weights":["…","…","…","…","…","…","…","…","…","…","…","…","…","…","…","…","…","…","…","…","…","…","…","…","…","…","…","…","…","…","…","…","…","…","…","…","…","…","…","…","…","…","…","…","…","…","…","…","…","…","…","…","…","…","…","…","…","…","…","…","…","…","…","…","…","…","…","…","…","…","…","…","…","…","…","…","…","…","…","…","…","…","…","…","…","…","…","…","…","…","…","…","…","…","…","…"],"bias":["…"]},"conv2d_11":{"weights":["…","…","…","…","…","…","…","…","…","…","…","…","…","…","…","…","…","…","…","…","…","…","…","…","…","…","…","…","…","…","…","…","…","…","…","…","…","…","…","…","…","…","…","…","…","…","…","…","…","…","…","…","…","…","…","…","…","…","…","…","…","…","…","…","…","…","…","…","…","…","…","…","…","…","…","…","…","…","…","…","…","…","…","…","…","…","…","…","…","…","…","…","…","…","…","…","…","…","…","…","…","…","…","…","…","…","…","…","…","…","…","…","…","…","…","…","…","…","…","…","…","…","…","…","…","…","…","…","…","…","…","…","…","…","…","…","…","…","…","…","…","…","…","…","…","…","…","…","…","…","…","…","…","…","…","…","…","…","…","…","…","…","…","…","…","…","…","…","…","…","…","…","…","…","…","…","…","…","…","…","…","…","…","…","…","…","…","…","…","…","…","…","…","…","…","…","…","…","…","…","…","…","…","…","…","…","…","…","…","…","…","…","…","…","…","…","…","…","…","…","…","…","…","…","…","…","…","…","…","…","…","…","…","…","…","…","…","…","…","…","…","…","…","…","…","…","…","…","…","…","…","…","…","…","…","…","…","…","…","…","…","…","…","…","…","…","…","…","…","…","…","…","…","…","…","…","…","…","…","…","…","…","…","…","…","…","…","…","…","…","…","…","…","…","…","…","…","…","…","…","…","…","…","…","…","…","…","…","…","…","…","…","…","…","…","…","…","…","…","…","…","…","…","…","…","…","…","…","…","…","…","…","…","…","…","…","…","…","…","…","…","…","…","…","…","…","…","…","…","…","…","…","…","…","…","…","…","…","…","…","…","…","…","…","…","…","…","…","…","…","…","…","…","…","…","…","…","…","…","…","…","…","…","…"],"bias":["…"]},"dense_4":{"weights":["…","…","…","…","…","…","…","…","…","…","…","…","…","…","…","…","…","…","…","…","…","…","…","…","…","…","…","…","…","…","…","…","…","…","…","…","…","…","…","…","…","…","…","…","…","…","…","…","…","…","…","…","…","…","…","…","…","…","…","…","…","…","…","…","…","…","…","…","…","…","…","…","…","…","…","…","…","…","…","…","…","…","…","…","…","…","…","…","…","…","…","…","…","…","…","…","…","…","…","…","…","…","…","…","…","…","…","…","…","…","…","…","…","…","…","…","…","…","…","…","…","…","…","…","…","…","…","…","…","…","…","…","…","…","…","…","…","…","…","…","…","…","…","…","…","…","…","…","…","…","…","…","…","…","…","…","…","…","…","…","…","…","…","…","…","…","…","…","…","…","…","…","…","…","…","…","…","…","…","…","…","…","…","…","…","…","…","…","…","…","…","…","…","…","…","…","…","…","…","…","…","…","…","…","…","…","…","…","…","…","…","…","…","…","…","…","…","…","…","…","…","…","…","…","…","…","…","…","…","…","…","…","…","…","…","…","…","…","…","…","…","…","…","…","…","…","…","…","…","…","…","…","…","…","…","…","…","…","…","…","…","…","…","…","…","…","…","…","…","…","…","…","…","…","…","…","…","…","…","…","…","…","…","…","…","…","…","…","…","…","…","…","…","…","…","…","…","…","…","…","…","…","…","…","…","…","…","…","…","…","…","…","…","…","…","…","…","…","…","…","…","…","…","…","…","…","…","…","…","…","…","…","…","…","…","…","…","…","…","…","…","…"],"bias":["…","…","…"]},"dense_5":{"weights":["…","…","…","…","…","…","…","…","…","…","…","…","…","…","…","…"],"bias":["G1QrvSPvxbxlTLO9x3eIPZhW4T2+zFa9"]}},"hash":"7979d92032e0307b84289032768657d2de5cd8087dc9ebb6ca85e331c31bc75d"}