{"architecture":{"class_name":"Functional","config":{"name":"sequential_2","layers":[{"class_name":"InputLayer","config":{"batch_input_shape":[null,48,48,1],"dtype":"float32","sparse":false,"ragged":false,"name":"input_1"},"name":"input_1","inbound_nodes":[]},{"class_name":"Rescaling","config":{"name":"rescaling_2","trainable":true,"batch_input_shape":[null,48,48,1],"dtype":"float32","scale":0.00392156862745098,"offset":0.0},"name":"rescaling_2","inbound_nodes":[[["input_1",0,0,{}]]]},{"class_name":"Conv2D","config":{"name":"conv2d_8","trainable":true,"batch_input_shape":[null,48,48,1],"dtype":"float32","filters":32,"kernel_size":[3,3],"strides":[1,1],"padding":"valid","data_format":"channels_last","dilation_rate":[1,1],"groups":1,"activation":"relu","use_bias":true,"kernel_initializer":{"class_name":"GlorotUniform","config":{"seed":null}},"bias_initializer":{"class_name":"Zeros","config":{}},"kernel_regularizer":null,"bias_regularizer":null,"activity_regularizer":null,"kernel_constraint":null,"bias_constraint":null},"name":"conv2d_8","inbound_nodes":[[["rescaling_2",0,0,{}]]]},{"class_name":"MaxPooling2D","config":{"name":"max_pooling2d_8","trainable":true,"dtype":"float32","pool_size":[2,2],"padding":"valid","strides":[2,2],"data_format":"channels_last"},"name":"max_pooling2d_8","inbound_nodes":[[["conv2d_8",0,0,{}]]]},{"class_name":"Conv2D","config":{"name":"conv2d_9","trainable":true,"batch_input_shape":[null,64,64,3],"dtype":"float32","filters":32,"kernel_size":[3,3],"strides":[1,1],"padding":"valid","data_format":"channels_last","dilation_rate":[1,1],"groups":1,"activation":"relu","use_bias":true,"kernel_initializer":{"class_name":"GlorotUniform","config":{"seed":null}},"bias_initializer":{"class_name":"Zeros","config":{}},"kernel_regularizer":null,"bias_regularizer":null,"activity_regularizer":null,"kernel_constraint":null,"bias_constraint":null},"name":"conv2d_9","inbound_nodes":[[["max_pooling2d_8",0,0,{}]]]},{"class_name":"MaxPooling2D","config":{"name":"max_pooling2d_9","trainable":true,"dtype":"float32","pool_size":[2,2],"padding":"valid","strides":[2,2],"data_format":"channels_last"},"name":"max_pooling2d_9","inbound_nodes":[[["conv2d_9",0,0,{}]]]},{"class_name":"Conv2D","config":{"name":"conv2d_10","trainable":true,"batch_input_shape":[null,64,64,3],"dtype":"float32","filters":64,"kernel_size":[3,3],"strides":[1,1],"padding":"valid","data_format":"channels_last","dilation_rate":[1,1],"groups":1,"activation":"relu","use_bias":true,"kernel_initializer":{"class_name":"GlorotUniform","config":{"seed":null}},"bias_initializer":{"class_name":"Zeros","config":{}},"kernel_regularizer":null,"bias_regularizer":null,"activity_regularizer":null,"kernel_constraint":null,"bias_constraint":null},"name":"conv2d_10","inbound_nodes":[[["max_pooling2d_9",0,0,{}]]]},{"class_name":"MaxPooling2D","config":{"name":"max_pooling2d_10","trainable":true,"dtype":"float32","pool_size":[2,2],"padding":"valid","strides":[2,2],"data_format":"channels_last"},"name":"max_pooling2d_10","inbound_nodes":[[["conv2d_10",0,0,{}]]]},{"class_name":"Conv2D","config":{"name":"conv2d_11","trainable":true,"batch_input_shape":[null,64,64,3],"dtype":"float32","filters":128,"kernel_size":[3,3],"strides":[1,1],"padding":"valid","data_format":"channels_last","dilation_rate":[1,1],"groups":1,"activation":"relu","use_bias":true,"kernel_initializer":{"class_name":"GlorotUniform","config":{"seed":null}},"bias_initializer":{"class_name":"Zeros","config":{}},"kernel_regularizer":null,"bias_regularizer":null,"activity_regularizer":null,"kernel_constraint":null,"bias_constraint":null},"name":"conv2d_11","inbound_nodes":[[["max_pooling2d_10",0,0,{}]]]},{"class_name":"MaxPooling2D","config":{"name":"max_pooling2d_11","trainable":true,"dtype":"float32","pool_size":[2,2],"padding":"valid","strides":[2,2],"data_format":"channels_last"},"name":"max_pooling2d_11","inbound_nodes":[[["conv2d_11",0,0,{}]]]},{"class_name":"Flatten","config":{"name":"flatten_2","trainable":true,"dtype":"float32","data_format":"channels_last"},"name":"flatten_2","inbound_nodes":[[["max_pooling2d_11",0,0,{}]]]},{"class_name":"Dense","config":{"name":"dense_4","trainable":true,"dtype":"float32","units":512,"activation":"relu","use_bias":true,"kernel_initializer":{"class_name":"GlorotUniform","config":{"seed":null}},"bias_initializer":{"class_name":"Zeros","config":{}},"kernel_regularizer":null,"bias_regularizer":null,"activity_regularizer":null,"kernel_constraint":null,"bias_constraint":null},"name":"dense_4","inbound_nodes":[[["flatten_2",0,0,{}]]]},{"class_name":"Dense","config":{"name":"dense_5","trainable":true,"dtype":"float32","units":6,"activation":"softmax","use_bias":true,"kernel_initializer":{"class_name":"GlorotUniform","config":{"seed":null}},"bias_initializer":{"class_name":"Zeros","config":{}},"kernel_regularizer":null,"bias_regularizer":null,"activity_regularizer":null,"kernel_constraint":null,"bias_constraint":null},"name":"dense_5","inbound_nodes":[[["dense_4",0,0,{}]]]}],"input_layers":[["input_1",0,0]],"output_layers":[["dense_5",0,0]]},"keras_version":"2.10.0","backend":"tensorflow"},"image_data_format":"channels_last","input_shapes":[[48,48,1]],"output_shapes":[[6]],"tests":[{"inputs":[{"shape":[48,48,1],"values":["…","…","…","…","…","…","…","…","…","…","…","…"]}],"outputs":[{"shape":[6],"values":["h7f2Pj0WVT3+O1E+N7mGPbOjPj3YCRk+"]}]}],"trainable_params":{"conv2d_8":{"weights":["…","…"],"bias":["oAuGPRL9DL1x4Ty9l0vzPK7UEr2AYoK92w8yvkT13j217FW8SzgdvSTgyDzDSgi9gJyXPGwHdb0sXqU9R5y+PMj0SbvmJPa9anIEPXqLBz0ti/q7LsZhPUE4Gz2g5zS81ZMLPkH7XbxLbXq9SInOPFKhu711YJq8jKzVPJROrr0="]},"conv2d_9":{"weights":["…","…","…","…","…","…","…","…","…","…","…","…","…","…","…","…","…","…","…","…","…","…","…","…","…","…","…","…","…","…","…","…","…","…","…","…","…","…","…","…","…","…","…","…","…","…","…","…"],"bias":["MW4TvTeVJT0Gxx67ZNj6vKBo37zHfEK9yQyBvciIuz1DWiq8LcobvmoaoLxvDJM6L5PqvXeeRbymCt28L6X5vB9wiD0FTKO8gtIovbWrgb2Oimu9pcWBvYJajbwNqKY8pbAGvbpXh736AK08foUDvXyg0D3Qf/C9xN08vYnKrbs="]},"conv2d_10":{"weights":["…","…","…","…","…","…","…","…","…","…","…","…","…","…","…","…","…","…","…","…","…","…","…","…","…","…","…","…","…","…","…","…","…","…","…","…","…","…","…","…","…","…","…","…","…","…","…","…","…","…","…","…","…","…","…","…","…","…","…","…","…","…","…","…","…","…","…","…","…","…","…","…","…","…","…","…","…","…","…","…","…","…","…","…","…","…","…","…","…","…","…","…","…","…","…","…"],"bias":["…"]},"conv2d_11":{"weights":["…","…","…","…","…","…","…","…","…","…","…","…","…","…","…","…","…","…","…","…","…","…","…","…","…","…","…","…","…","…","…","…","…","…","…","…","…","…","…","…","…","…","…","…","…","…","…","…","…","…","…","…","…","…","…","…","…","…","…","…","…","…","…","…","…","…","…","…","…","…","…","…","…","…","…","…","…","…","…","…","…","…","…","…","…","…","…","…","…","…","…","…","…","…","…","…","…","…","…","…","…","…","…","…","…","…","…","…","…","…","…","…","…","…","…","…","…","…","…","…","…","…","…","…","…","…","…","…","…","…","…","…","…","…","…","…","…","…","…","…","…","…","…","…","…","…","…","…","…","…","…","…","…","…","…","…","…","…","…","…","…","…","…","…","…","…","…","…","…","…","…","…","…","…","…","…","…","…","…","…","…","…","…","…","…","…","…","…","…","…","…","…","…","…","…","…","…","…","…","…","…","…","…","…","…","…","…","…","…","…","…","…","…","…","…","…","…","…","…","…","…","…","…","…","…","…","…","…","…","…","…","…","…","…","…","…","…","…","…","…","…","…","…","…","…","…","…","…","…","…","…","…","…","…","…","…","…","…","…","…","…","…","…","…","…","…","…","…","…","…","…","…","…","…","…","…","…","…","…","…","…","…","…","…","…","…","…","…","…","…","…","…","…","…","…","…","…","…","…","…","…","…","…","…","…","…","…","…","…","…","…","…","…","…","…","…","…","…","…","…","…","…","…","…","…","…","…","…","…","…","…","…","…","…","…","…","…","…","…","…","…","…","…","…","…","…","…","…","…","…","…","…","…","…","…","…","…","…","…","…","…","…","…","…","…","…","…","…","…","…","…","…","…","…","…","…","…","…","…","…","…","…","…","…"],"bias":["…"]},"dense_4":{"weights":["…","…","…","…","…","…","…","…","…","…","…","…","…","…","…","…","…","…","…","…","…","…","…","…","…","…","…","…","…","…","…","…","…","…","…","…","…","…","…","…","…","…","…","…","…","…","…","…","…","…","…","…","…","…","…","…","…","…","…","…","…","…","…","…","…","…","…","…","…","…","…","…","…","…","…","…","…","…","…","…","…","…","…","…","…","…","…","…","…","…","…","…","…","…","…","…","…","…","…","…","…","…","…","…","…","…","…","…","…","…","…","…","…","…","…","…","…","…","…","…","…","…","…","…","…","…","…","…","…","…","…","…","…","…","…","…","…","…","…","…","…","…","…","…","…","…","…","…","…","…","…","…","…","…","…","…","…","…","…","…","…","…","…","…","…","…","…","…","…","…","…","…","…","…","…","…","…","…","…","…","…","…","…","…","…","…","…","…","…","…","…","…","…","…","…","…","…","…","…","…","…","…","…","…","…","…","…","…","…","…","…","…","…","…","…","…","…","…","…","…","…","…","…","…","…","…","…","…","…","…","…","…","…","…","…","…","…","…","…","…","…","…","…","…","…","…","…","…","…","…","…","…","…","…","…","…","…","…","…","…","…","…","…","…","…","…","…","…","…","…","…","…","…","…","…","…","…","…","…","…","…","…","…","…","…","…","…","…","…","…","…","…","…","…","…","…","…","…","…","…","…","…","…","…","…","…","…","…","…","…","…","…","…","…","…","…","…","…","…","…","…","…","…","…","…","…","…","…","…","…","…","…","…","…","…","…","…","…","…","…","…","…"],"bias":["…","…","…"]},"dense_5":{"weights":["…","…","…","…","…","…","…","…","…","…","…","…","…","…","…","…"],"bias":["poaWu+KXYz14K8C8GLj4OZmtQjyhw2y9"]}},"hash":"25250184046730464dd9f89286a08916bf552abcb9eed46f54e7950ca04b4a62"}