{"architecture":{"class_name":"Functional","config":{"name":"sequential_4","layers":[{"class_name":"InputLayer","config":{"batch_input_shape":[null,48,48,1],"dtype":"float32","sparse":false,"ragged":false,"name":"input_1"},"name":"input_1","inbound_nodes":[]},{"class_name":"Rescaling","config":{"name":"rescaling_1","trainable":true,"batch_input_shape":[null,48,48,1],"dtype":"float32","scale":0.00392156862745098,"offset":0.0},"name":"rescaling_1","inbound_nodes":[[["input_1",0,0,{}]]]},{"class_name":"Conv2D","config":{"name":"conv2d_12","trainable":true,"batch_input_shape":[null,48,48,1],"dtype":"float32","filters":32,"kernel_size":[3,3],"strides":[1,1],"padding":"valid","data_format":"channels_last","dilation_rate":[1,1],"groups":1,"activation":"relu","use_bias":true,"kernel_initializer":{"class_name":"GlorotUniform","config":{"seed":null}},"bias_initializer":{"class_name":"Zeros","config":{}},"kernel_regularizer":null,"bias_regularizer":null,"activity_regularizer":null,"kernel_constraint":null,"bias_constraint":null},"name":"conv2d_12","inbound_nodes":[[["rescaling_1",0,0,{}]]]},{"class_name":"MaxPooling2D","config":{"name":"max_pooling2d_12","trainable":true,"dtype":"float32","pool_size":[2,2],"padding":"valid","strides":[2,2],"data_format":"channels_last"},"name":"max_pooling2d_12","inbound_nodes":[[["conv2d_12",0,0,{}]]]},{"class_name":"Conv2D","config":{"name":"conv2d_13","trainable":true,"batch_input_shape":[null,64,64,1],"dtype":"float32","filters":32,"kernel_size":[3,3],"strides":[1,1],"padding":"valid","data_format":"channels_last","dilation_rate":[1,1],"groups":1,"activation":"relu","use_bias":true,"kernel_initializer":{"class_name":"GlorotUniform","config":{"seed":null}},"bias_initializer":{"class_name":"Zeros","config":{}},"kernel_regularizer":null,"bias_regularizer":null,"activity_regularizer":null,"kernel_constraint":null,"bias_constraint":null},"name":"conv2d_13","inbound_nodes":[[["max_pooling2d_12",0,0,{}]]]},{"class_name":"MaxPooling2D","config":{"name":"max_pooling2d_13","trainable":true,"dtype":"float32","pool_size":[2,2],"padding":"valid","strides":[2,2],"data_format":"channels_last"},"name":"max_pooling2d_13","inbound_nodes":[[["conv2d_13",0,0,{}]]]},{"class_name":"Conv2D","config":{"name":"conv2d_14","trainable":true,"batch_input_shape":[null,64,64,1],"dtype":"float32","filters":64,"kernel_size":[3,3],"strides":[1,1],"padding":"valid","data_format":"channels_last","dilation_rate":[1,1],"groups":1,"activation":"relu","use_bias":true,"kernel_initializer":{"class_name":"GlorotUniform","config":{"seed":null}},"bias_initializer":{"class_name":"Zeros","config":{}},"kernel_regularizer":null,"bias_regularizer":null,"activity_regularizer":null,"kernel_constraint":null,"bias_constraint":null},"name":"conv2d_14","inbound_nodes":[[["max_pooling2d_13",0,0,{}]]]},{"class_name":"MaxPooling2D","config":{"name":"max_pooling2d_14","trainable":true,"dtype":"float32","pool_size":[2,2],"padding":"valid","strides":[2,2],"data_format":"channels_last"},"name":"max_pooling2d_14","inbound_nodes":[[["conv2d_14",0,0,{}]]]},{"class_name":"Conv2D","config":{"name":"conv2d_15","trainable":true,"batch_input_shape":[null,64,64,1],"dtype":"float32","filters":128,"kernel_size":[3,3],"strides":[1,1],"padding":"valid","data_format":"channels_last","dilation_rate":[1,1],"groups":1,"activation":"relu","use_bias":true,"kernel_initializer":{"class_name":"GlorotUniform","config":{"seed":null}},"bias_initializer":{"class_name":"Zeros","config":{}},"kernel_regularizer":null,"bias_regularizer":null,"activity_regularizer":null,"kernel_constraint":null,"bias_constraint":null},"name":"conv2d_15","inbound_nodes":[[["max_pooling2d_14",0,0,{}]]]},{"class_name":"MaxPooling2D","config":{"name":"max_pooling2d_15","trainable":true,"dtype":"float32","pool_size":[2,2],"padding":"valid","strides":[2,2],"data_format":"channels_last"},"name":"max_pooling2d_15","inbound_nodes":[[["conv2d_15",0,0,{}]]]},{"class_name":"Flatten","config":{"name":"flatten_3","trainable":true,"dtype":"float32","data_format":"channels_last"},"name":"flatten_3","inbound_nodes":[[["max_pooling2d_15",0,0,{}]]]},{"class_name":"Dense","config":{"name":"dense_8","trainable":true,"dtype":"float32","units":512,"activation":"relu","use_bias":true,"kernel_initializer":{"class_name":"GlorotUniform","config":{"seed":null}},"bias_initializer":{"class_name":"Zeros","config":{}},"kernel_regularizer":null,"bias_regularizer":null,"activity_regularizer":null,"kernel_constraint":null,"bias_constraint":null},"name":"dense_8","inbound_nodes":[[["flatten_3",0,0,{}]]]},{"class_name":"Dense","config":{"name":"dense_9","trainable":true,"dtype":"float32","units":2,"activation":"softmax","use_bias":true,"kernel_initializer":{"class_name":"GlorotUniform","config":{"seed":null}},"bias_initializer":{"class_name":"Zeros","config":{}},"kernel_regularizer":null,"bias_regularizer":null,"activity_regularizer":null,"kernel_constraint":null,"bias_constraint":null},"name":"dense_9","inbound_nodes":[[["dense_8",0,0,{}]]]}],"input_layers":[["input_1",0,0]],"output_layers":[["dense_9",0,0]]},"keras_version":"2.10.0","backend":"tensorflow"},"image_data_format":"channels_last","input_shapes":[[48,48,1]],"output_shapes":[[2]],"tests":[{"inputs":[{"shape":[48,48,1],"values":["…","…","…","…","…","…","…","…","…","…","…","…"]}],"outputs":[{"shape":[2],"values":["KkF7P8balzw="]}]}],"trainable_params":{"conv2d_12":{"weights":["…","…"],"bias":["QqV1u5AxdrxxkkK7qxbFvDJDcrxHhA29Ol72u2iepb0AB2O9W2SsvCgnrLtZB1a8mSGnOwUTi70UNEW9yiEoOphVQDwIDbA8Wvq9PI1nGr0FW6S8QCgcvDs5Cr2rcZg8OuBivAYUxjx90Si7DtRwuhrzXb39ndw8arbtvJpvFzw="]},"conv2d_13":{"weights":["…","…","…","…","…","…","…","…","…","…","…","…","…","…","…","…","…","…","…","…","…","…","…","…","…","…","…","…","…","…","…","…","…","…","…","…","…","…","…","…","…","…","…","…","…","…","…","…"],"bias":["UMCKvLX65jn31jS6te+QPPxqAjuYNKg6b0KlPIInXb3CGt68b+3jvI7yOzyd82E8GSW6PJ1GNbzo7Ii814R7vLoz8byggci8Zb/Ru4LbTrtxeEU7BySGuuGfhLuIb5i80QXLPMWPEb2F1wS8Jx8Jvflpq7wp3ck7H+79vCG8Dr0="]},"conv2d_14":{"weights":["…","…","…","…","…","…","…","…","…","…","…","…","…","…","…","…","…","…","…","…","…","…","…","…","…","…","…","…","…","…","…","…","…","…","…","…","…","…","…","…","…","…","…","…","…","…","…","…","…","…","…","…","…","…","…","…","…","…","…","…","…","…","…","…","…","…","…","…","…","…","…","…","…","…","…","…","…","…","…","…","…","…","…","…","…","…","…","…","…","…","…","…","…","…","…","…"],"bias":["…"]},"conv2d_15":{"weights":["…","…","…","…","…","…","…","…","…","…","…","…","…","…","…","…","…","…","…","…","…","…","…","…","…","…","…","…","…","…","…","…","…","…","…","…","…","…","…","…","…","…","…","…","…","…","…","…","…","…","…","…","…","…","…","…","…","…","…","…","…","…","…","…","…","…","…","…","…","…","…","…","…","…","…","…","…","…","…","…","…","…","…","…","…","…","…","…","…","…","…","…","…","…","…","…","…","…","…","…","…","…","…","…","…","…","…","…","…","…","…","…","…","…","…","…","…","…","…","…","…","…","…","…","…","…","…","…","…","…","…","…","…","…","…","…","…","…","…","…","…","…","…","…","…","…","…","…","…","…","…","…","…","…","…","…","…","…","…","…","…","…","…","…","…","…","…","…","…","…","…","…","…","…","…","…","…","…","…","…","…","…","…","…","…","…","…","…","…","…","…","…","…","…","…","…","…","…","…","…","…","…","…","…","…","…","…","…","…","…","…","…","…","…","…","…","…","…","…","…","…","…","…","…","…","…","…","…","…","…","…","…","…","…","…","…","…","…","…","…","…","…","…","…","…","…","…","…","…","…","…","…","…","…","…","…","…","…","…","…","…","…","…","…","…","…","…","…","…","…","…","…","…","…","…","…","…","…","…","…","…","…","…","…","…","…","…","…","…","…","…","…","…","…","…","…","…","…","…","…","…","…","…","…","…","…","…","…","…","…","…","…","…","…","…","…","…","…","…","…","…","…","…","…","…","…","…","…","…","…","…","…","…","…","…","…","…","…","…","…","…","…","…","…","…","…","…","…","…","…","…","…","…","…","…","…","…","…","…","…","…","…","…","…","…","…","…","…","…","…","…","…","…","…","…","…","…","…","…","…","…","…","…","…"],"bias":["…"]},"dense_8":{"weights":["…","…","…","…","…","…","…","…","…","…","…","…","…","…","…","…","…","…","…","…","…","…","…","…","…","…","…","…","…","…","…","…","…","…","…","…","…","…","…","…","…","…","…","…","…","…","…","…","…","…","…","…","…","…","…","…","…","…","…","…","…","…","…","…","…","…","…","…","…","…","…","…","…","…","…","…","…","…","…","…","…","…","…","…","…","…","…","…","…","…","…","…","…","…","…","…","…","…","…","…","…","…","…","…","…","…","…","…","…","…","…","…","…","…","…","…","…","…","…","…","…","…","…","…","…","…","…","…","…","…","…","…","…","…","…","…","…","…","…","…","…","…","…","…","…","…","…","…","…","…","…","…","…","…","…","…","…","…","…","…","…","…","…","…","…","…","…","…","…","…","…","…","…","…","…","…","…","…","…","…","…","…","…","…","…","…","…","…","…","…","…","…","…","…","…","…","…","…","…","…","…","…","…","…","…","…","…","…","…","…","…","…","…","…","…","…","…","…","…","…","…","…","…","…","…","…","…","…","…","…","…","…","…","…","…","…","…","…","…","…","…","…","…","…","…","…","…","…","…","…","…","…","…","…","…","…","…","…","…","…","…","…","…","…","…","…","…","…","…","…","…","…","…","…","…","…","…","…","…","…","…","…","…","…","…","…","…","…","…","…","…","…","…","…","…","…","…","…","…","…","…","…","…","…","…","…","…","…","…","…","…","…","…","…","…","…","…","…","…","…","…","…","…","…","…","…","…","…","…","…","…","…","…","…","…","…","…","…","…","…","…","…"],"bias":["…","…","…"]},"dense_9":{"weights":["…","…","…","…","…","…"],"bias":["9NkYvfjZGD0="]}},"hash":"6cfa60db8d16930af200f2e831a4bcd7102062e3a49b4e835d5c5604ebc0947d"}